basic/src/model_method1.pth (torch, 9788 bytes, 2 tensors)

weight f4 [64, 3, 3, 3]
0	0xbcae20c8	-0.021255866
1	0x3dcb3ac2	0.099233165
2	0xbdec9197	-0.115512066
3	0x3e33e829	0.17569031
4	0x3e19bfed	0.1501462
5	0xbd50af84	-0.050948635
6	0x3d915306	0.070959136
7	0xbdc5aecf	-0.09652483
8	0xbddfeb73	-0.1093358
9	0xbd585f34	-0.052825168
10	0x3e32f8b9	0.17477693
11	0x3dc96606	0.098339126
12	0xbe15ade1	-0.14617111
13	0xbe0ba5ec	-0.13637513
14	0x3c98dd90	0.018660337
15	0xbc9de498	-0.019274041
16	0xbe3443a3	-0.17603926
17	0x3e0526f3	0.13003139
18	0x3ca71938	0.020397767
19	0xbd66ced8	-0.056349605
20	0x3d51f2c8	0.051256925
21	0xbd9be03d	-0.076111294
22	0xbd155aec	-0.036463663
23	0xbb65b240	-0.0035048872
24	0xbc7a8360	-0.015290111
25	0xbb8f5200	-0.004373789
26	0xbe034f7e	-0.12823293
27	0xbdacb516	-0.08432977
28	0x3e2d45af	0.16921113
29	0xbdcdd258	-0.100498855
30	0xbcf107c8	-0.029422656
31	0x3cd02970	0.025410384
32	0xbccf5ae0	-0.025311887
33	0x3e1a3e57	0.15062843
34	0xbd5a9178	-0.053361386
35	0x3e1dc049	0.15405382
36	0xbe29569e	-0.16536948
37	0x3e090293	0.13379888
38	0x3d2af34c	0.041735932
39	0x3db2b556	0.08725993
40	0xbd43f858	-0.04784426
41	0xbe38247e	-0.1798267
42	0x3e3a4775	0.18191321
43	0xbd9f45df	-0.07776999
44	0xbd0b7090	-0.034042895
45	0x3d465c18	0.04842767
46	0xbdaaf361	-0.08347202
47	0xbdec869c	-0.11549112
48	0xbd8a4eab	-0.06753286
49	0xbe22c09c	-0.15893787
50	0x3e120851	0.14260985
51	0xbe20ce4a	-0.15703693
52	0x3e0d7797	0.13815151
53	0xbd3a4f20	-0.045485616
54	0xbe2fa6c5	-0.17153461
55	0x3e141333	0.14460449
56	0x3d8c6942	0.06856014
57	0xbd417380	-0.04722929
58	0x3e338b81	0.17533685
59	0xbda2b7fe	-0.0794525
60	0x3e06eead	0.13176985
61	0x3e0dfce5	0.13866003
62	0x3dc7f336	0.09763186
63	0xbd34d268	-0.04414597
64	0xbd84fbe2	-0.06493355
65	0xbe3f5798	-0.18685758
66	0xbca7b088	-0.020469919
67	0x3d8db7ea	0.069198444
68	0x3e1f586f	0.15561078
69	0x3da1764e	0.07883893
70	0x3daa0d06	0.08303265
71	0xbdb22b6e	-0.0869969
72	0x3e17817d	0.1479549
73	0xbe2ae755	-0.16689809
74	0x3d15ead0	0.036600888
75	0x3de02b3a	0.10945745
76	0xbe1d35a0	-0.15352488
77	0xbd2192d8	-0.03944668
78	0xbd4bad6c	-0.049725935
79	0x3a93b080	0.0011267811
80	0x3cd7d350	0.026345879
81	0x3d2ad498	0.04170665
82	0x3ca16360	0.019700706
83	0xbe29201f	-0.1651616
84	0x3c736d90	0.014857665
85	0x3e381ac7	0.17978965
86	0x3e29157f	0.16512106
87	0xbd9622e5	-0.07330874
88	0xbe1dc4b4	-0.15407068
89	0xbdc4f6be	-0.09617375
90	0xbd42eda4	-0.047589913
91	0xbe1cba8b	-0.15305535
92	0xbe1ac477	-0.15114008
93	0xbc409280	-0.011753678
94	0xbcd67ea0	-0.026183426
95	0x3cd592c8	0.026070967
96	0xbd7e8e44	-0.062147394
97	0xbdb70b56	-0.08937709
98	0x3da110aa	0.078645065
99	0x3d56aeb8	0.05241272
100	0xbdecf554	-0.1157023
101	0xbe41db0b	-0.18931215
102	0xbd243824	-0.040092602
103	0x3d45cda8	0.048291832
104	0x3e1e9017	0.15484653
105	0xbd059140	-0.032609224
106	0xbdb7d525	-0.08976201
107	0x3e10b5a9	0.14131798
108	0x3da5b62e	0.08091389
109	0x3d84259e	0.064524874
110	0xbe3ef4c2	-0.18648055
111	0x3e050f83	0.12994199
112	0xbbbc20a0	-0.005741194
113	0xbde40aa7	-0.11134844
114	0xbe149abc	-0.14512151
115	0x3dfc0dd2	0.123073235
116	0xbd2160e0	-0.039399028
117	0x3e26f029	0.16302551
118	0x3ddf8696	0.10914342
119	0x3dd1941e	0.10233329
120	0xbe04c76d	-0.129667
121	0x3d54c528	0.051945835
122	0x3baf0880	0.0053415895
123	0x3d2a1ee8	0.04153338
124	0xbb94a220	-0.0045359284
125	0x3ccaa050	0.024734646
126	0x3c9287f0	0.017887086
127	0x3d2804ac	0.04102008
128	0x3e07524d	0.13214989
129	0x3b330d80	0.002732128
130	0x3e368ce3	0.17827182
131	0xbcb49e58	-0.02204816
132	0xbd6fdf70	-0.058562696
133	0xbe37e407	-0.1795808
134	0xbe22f050	-0.15911984
135	0xbca74ab0	-0.020421356
136	0x3d95532e	0.07291256
137	0x3db7976a	0.08964427
138	0xbe1a05b1	-0.15041234
139	0xbe0f40e6	-0.139896
140	0xbe1a20b8	-0.15051544
141	0xbba44e20	-0.005014196
142	0x3cd365f0	0.025805444
143	0x3e32832b	0.17432849
144	0x3d0acbcc	0.033885762
145	0xbd7160dc	-0.058930263
146	0x3dd91ce6	0.10601215
147	0x3e0cfa77	0.1376742
148	0x3ca76c18	0.020437285
149	0x3e24e38b	0.16102426
150	0x3e43e423	0.19129996
151	0x3c11b710	0.008893743
152	0x3e36aaef	0.17838643
153	0xbe22656b	-0.15859
154	0xbe3ad3f0	-0.1824491
155	0xbe297f6d	-0.16552515
156	0x3baf5ac0	0.0053513944
157	0x3e333c0d	0.17503376
158	0xbd72ff40	-0.059325457
159	0xbd965a74	-0.07341471
160	0x3cf50388	0.02990891
161	0x3e083aa3	0.13303618
162	0xbb597fc0	-0.0033187717
163	0x3daa76d2	0.083234444
164	0x3cbe3e28	0.023222998
165	0xbe298028	-0.16552794
166	0xbd63bb38	-0.055598468
167	0xbe40323f	-0.18769167
168	0xbdba469e	-0.090955004
169	0xbd232330	-0.03982848
170	0x3d26dae0	0.04073608
171	0xbdeccfa2	-0.1156304
172	0x3e019f77	0.12658487
173	0x3d2d97f4	0.042381242
174	0xbca63f00	-0.020293713
175	0xbe1f4f11	-0.15557505
176	0x3d6634a4	0.056202546
177	0xbdf1198c	-0.11772451
178	0x3dcf9a56	0.10136859
179	0x3e2feb31	0.17179562
180	0x3db05d76	0.08611576
181	0xbce5ac98	-0.0280364
182	0x3e3c8b97	0.18412624
183	0xbda41d99	-0.08013458
184	0x3e335da1	0.17516185
185	0xbdd71d5d	-0.105036475
186	0xbdca9561	-0.09891773
187	0x3e2d31af	0.16913484
188	0x3dca44ca	0.09876402
189	0x3c0890f0	0.008335337
190	0xbd1dae94	-0.03849657
191	0xbd29f248	-0.041490823
192	0x3dc6dc3a	0.09709974
193	0xbdf93e18	-0.121700466
194	0x3d760b34	0.060069278
195	0x3e248911	0.16067912
196	0x3dbc7b5e	0.09203218
197	0xbe02caf1	-0.12772729
198	0x3e428e3f	0.18999575
199	0xbdc16bf7	-0.09444421
200	0x3d886e06	0.0666161
201	0x3da611aa	0.08108838
202	0x3dfb8ef2	0.12283124
203	0xbe3d81d9	-0.18506564
204	0x3daeea42	0.08540775
205	0x3e41683f	0.18887423
206	0xbe118f73	-0.14214878
207	0x3cddf660	0.02709502
208	0xbde6d5ba	-0.11271234
209	0x3dd5082a	0.10401948
210	0x3e0a4ab9	0.13505067
211	0x3d1553dc	0.036456928
212	0x3e25579d	0.16146703
213	0xbe379ca0	-0.17930841
214	0x3dd8d276	0.10587017
215	0xbde3341e	-0.11093925
216	0xbcf974b8	-0.030451164
217	0x3d676fc0	0.056503057
218	0x3e1cd129	0.15314163
219	0xbdfaad19	-0.12240047
220	0xbca1a2f8	-0.01973103
221	0xbda9ad3d	-0.08284996
222	0xbd715038	-0.058914393
223	0x3c8c7308	0.017144695
224	0x3de3620a	0.11102684
225	0x3e41c3b9	0.18922319
226	0x3deb21da	0.11481066
227	0x3e2f26f7	0.17104708
228	0xbe0ea588	-0.13930333
229	0x3e077317	0.13227497
230	0xbdc5dee9	-0.09661657
231	0xbcf81138	-0.030281648
232	0xbe268e31	-0.16265179
233	0xbe1f6afa	-0.15568152
234	0x3d8b2c82	0.067955986
235	0xbdd04bbc	-0.10170695
236	0xbd25288c	-0.04032187
237	0xbd3625fc	-0.04446982
238	0xbd97ea57	-0.07417744
239	0xbd72e654	-0.05930169
240	0xbdb203bd	-0.08692119
241	0x3e157d03	0.1459847
242	0x3d5b95a8	0.05360952
243	0x3dfb357a	0.12266059
244	0x3dfb8dba	0.122828916
245	0x3e145d21	0.14488651
246	0xbd8352d4	-0.064122826
247	0x3e18bef1	0.14916588
248	0x3e166d19	0.14690055
249	0x3e2a4471	0.16627671
250	0x3e3bd407	0.18342601
251	0xbe00fd00	-0.12596512
252	0x3d278df8	0.040906876
253	0xbd6750cc	-0.05647354
254	0x3d28b318	0.041186422
255	0x3e2fc04f	0.17163204

bias f4 [64]
0	0xbdfd2d0b	-0.12362107
1	0xbd6cd9c8	-0.05782488
2	0xbe2d9bf6	-0.16954026
3	0x3db9d6a6	0.09074144
4	0x3d87205e	0.065979704
5	0x3daeba0a	0.08531578
6	0x3e2a9437	0.16658102
7	0x3d462270	0.048372686
8	0xbe0a1764	-0.13485485
9	0xbdcc942d	-0.099892
10	0x3deeeb66	0.116659924
11	0xbdb04316	-0.086065456
12	0x3dc189ca	0.09450109
13	0x3de9ac8e	0.11409865
14	0x3e348393	0.17628317
15	0xbdde78d7	-0.10862892
16	0x3e0ecddf	0.13945721
17	0x3c253bf0	0.010085091
18	0xbc21f4c0	-0.009885013
19	0x3dcea14e	0.1008936
20	0x3e0652f3	0.1311758
21	0x3d100238	0.035158366
22	0xbe1c84a6	-0.15284976
23	0x3d612e8c	0.05497603
24	0xbe0ca3cf	-0.13734363
25	0xbcee2d60	-0.02907437
26	0x3bd84500	0.0066000223
27	0x3e02a0df	0.1275668
28	0xbddc06a7	-0.10743456
29	0xbc539c60	-0.012915701
30	0xbdcb6f26	-0.09933309
31	0x3dcbfeea	0.099607304
32	0x3dcb6cea	0.09932883
33	0x3d96c112	0.07361044
34	0x3e139d7f	0.14415549
35	0x3e2213e7	0.15827905
36	0xbe0eafa1	-0.13934185
37	0x3d3f8e78	0.04676673
38	0xbcada4c0	-0.021196723
39	0xbca36598	-0.019945905
40	0xbe4381eb	-0.19092529
41	0xbdd4cd92	-0.10390772
42	0x3ccaf490	0.02477482
43	0xbd9a6361	-0.07538486
44	0xbdcd913a	-0.100374654
45	0xbcd205c8	-0.025637522
46	0xbd11e448	-0.035618097
47	0x3e111bcf	0.14170764
48	0xbd7e2bc8	-0.06205347
49	0x3bfa6ee0	0.007642612
50	0xbe24e1ef	-0.16101812
51	0xbcaccfc0	-0.021095157
52	0xbe1c484b	-0.15261953
53	0xbe073310	-0.13203073
54	0x3d92d872	0.0717019
55	0xbe191965	-0.14951093
56	0x3a2c5e00	0.00065752864
57	0xbd7185f0	-0.058965623
58	0xbd8ec2e9	-0.0697077
59	0xbce7e368	-0.028306678
60	0x3d9a0936	0.07521288
61	0xbda2043b	-0.07910963
62	0xbe0de306	-0.13856134
63	0xbe0f2ff4	-0.13983136
